feature_extractor.pth (torch, 128635 bytes, 12 tensors)

feature.0.weight f4 [64, 3, 3, 3]
0	0xbe6ea5a6	-0.23305377
1	0xbe4ab234	-0.19794542
2	0xbea1dd45	-0.31614128
3	0xbdb441ed	-0.08801637
4	0xbd65efa7	-0.056136753
5	0x3f1f0d3e	0.6212958
6	0xbe0c9993	-0.13730459
7	0xbd964567	-0.07337456
8	0x3fd8d393	1.6939567
9	0x3eb0c0e0	0.34522152
10	0x3e78e4d4	0.24306041
11	0x3eaac2de	0.33351797
12	0x3de2e694	0.110791355
13	0x3eb4034a	0.3515876
14	0x3f05a384	0.5220263
15	0x3e79ecd7	0.24406753
16	0x3eed2a5e	0.46321386
17	0x3ebfcd92	0.37461525
18	0x3e883f17	0.26610634
19	0x3e41a296	0.18909678
20	0x3e51010e	0.20410559
21	0xbee2bd47	-0.44285032
22	0xbe6268fd	-0.22110362
23	0xbe83a137	-0.25708935
24	0x3de9fd16	0.114252254
25	0xbe8ec43e	-0.27884096
26	0x3d926f58	0.071501434
27	0xbc903b9e	-0.017606553
28	0xbea2d863	-0.31805715
29	0x3ee31e69	0.4435914
30	0x3dead863	0.11467054
31	0xbe2eb649	-0.17061724
32	0x3eb7e116	0.35913914
33	0x3e39fae1	0.18162109
34	0x3e3a909c	0.18219227
35	0xbd530f43	-0.051528227
36	0xbea8a6a7	-0.32939646
37	0xbeb47ed7	-0.3525302
38	0xbe9ce8f6	-0.30646485
39	0xbf564267	-0.8369507
40	0xbf29fc2d	-0.66400415
41	0xbece7654	-0.40324652
42	0x3ea84794	0.3286711
43	0xbd459716	-0.04823979
44	0x3ea49158	0.32142138
45	0xbd7559e9	-0.059900198
46	0xbe092e29	-0.13396515
47	0x3d95db13	0.07317176
48	0xbee50c28	-0.44735837
49	0xbea82eb0	-0.3284812
50	0xbf43e40d	-0.7651985
51	0x3f08eeb6	0.53489244
52	0x3de719b1	0.11284197
53	0x3efbaa6f	0.49153468
54	0x3d1af03e	0.03782677
55	0x3ec7fe14	0.39061034
56	0x3f18d17b	0.5969464
57	0xbe4a4b31	-0.19755246
58	0x3f16142f	0.5862455
59	0x3f9b02b9	1.2110206
60	0xbd933be9	-0.07189161
61	0x3f50eb17	0.8160872
62	0x3ea9cecc	0.33165586
63	0xbe2129c6	-0.15738592
64	0xbe669353	-0.22517137
65	0xbdf6b3dd	-0.12046025
66	0x3ed95bc2	0.42452818
67	0x3f1ad294	0.60477567
68	0x3ebf1587	0.37321112
69	0x3e85df66	0.26147002
70	0x3e93ccc5	0.28867164
71	0x3db145af	0.08655869
72	0xbe0913c4	-0.13386446
73	0x3e99fc46	0.30075282
74	0xbd5cd826	-0.053917073
75	0x3f15ce21	0.5851765
76	0x3ee41367	0.44546053
77	0x3f27dd3c	0.6557195
78	0x3dba68ef	0.09102046
79	0xbcd8d0f8	-0.026466832
80	0x3d8d7b9e	0.06908344
81	0xbe92aa72	-0.28645664
82	0xbd44af39	-0.048018668
83	0x3f65ceb8	0.8976855
84	0xbee6de56	-0.45091504
85	0x3e357fa7	0.17724477
86	0xbdec786b	-0.115464054
87	0xbed3c4fa	-0.4136122
88	0xbc43dae7	-0.011954046
89	0xbe43fbb9	-0.19138993
90	0x3eb9df13	0.36303005
91	0x3e99399d	0.29926768
92	0x3e964c45	0.29355064
93	0x3d667f1b	0.05627356
94	0x3d4f8f34	0.05067368
95	0xbb3d4d56	-0.0028885207
96	0xbdb452f4	-0.088048846
97	0xbddf36a5	-0.108990945
98	0xbe3182c1	-0.17335035
99	0x3eb2ee79	0.34947565
100	0x3eb227f2	0.347961
101	0x3ea6909d	0.32532206
102	0xbebd237c	-0.36941135
103	0xbb1bf381	-0.0023796263
104	0xbe1ef16e	-0.15521786
105	0xbea7d189	-0.3277705
106	0x3d0e281b	0.034706216
107	0x3bdc1c87	0.006717268
108	0x3e146329	0.14490952
109	0xbed925ed	-0.42411748
110	0xbf329ae4	-0.69767594
111	0x3e9acf76	0.30236405
112	0xbe882e23	-0.265977
113	0xbe012bf3	-0.12614422
114	0x3e449f0f	0.19201301
115	0xbeaddfac	-0.3395971
116	0x3e808eb2	0.25108868
117	0x3df01254	0.11722246
118	0x3da7a3ef	0.08185565
119	0xbd8b8ac5	-0.068135776
120	0xbe9d04da	-0.30667764
121	0xbeb1640c	-0.34646642
122	0xbd78193b	-0.060570937
123	0x3e1dc297	0.15406261
124	0xbdb9089f	-0.090348475
125	0xbbe20b72	-0.006898337
126	0x3ea70b68	0.3262589
127	0x3f05828c	0.52152324
128	0x3e94a0ed	0.29029027
129	0x3e67b763	0.2262855
130	0x3efac388	0.48977304
131	0x3ede0c39	0.433687
132	0xbedbe44e	-0.4294762
133	0xbec42ea2	-0.38316828
134	0xbefea94a	-0.49738532
135	0x3e6046b1	0.21901967
136	0x3e48ca16	0.1960834
137	0xbe3e1cac	-0.18565625
138	0x3c5eda5a	0.013601864
139	0x3dba9088	0.091095984
140	0xbd9d40bf	-0.07678365
141	0x3c434846	0.011919087
142	0xbc95304c	-0.018211506
143	0x3ea98c19	0.331147
144	0x3e79cc4a	0.24394336
145	0x3e9f9f55	0.31176248
146	0x3e875011	0.26428273
147	0x3e0c42e8	0.13697398
148	0x3c0cdada	0.0085971
149	0x3de01ede	0.109433874
150	0x3e57c56a	0.21071401
151	0x3d549303	0.051898014
152	0x3c65e213	0.014030951
153	0x3ce9bd02	0.028532509
154	0x3dcd18e3	0.100145124
155	0x3e46b5a4	0.19405228
156	0xbe5accd9	-0.21367206
157	0xbec700bb	-0.38867745
158	0xbdf8fa2e	-0.12157093
159	0xbf110087	-0.5664143
160	0xbf03d471	-0.51496035
161	0xbee6d6f3	-0.45085868
162	0xbe0a469a	-0.13503495
163	0xbeab60dd	-0.33472338
164	0xbd39abfc	-0.045330033
165	0xbe64fc02	-0.22361758
166	0xbed3510c	-0.4127277
167	0x3e7790a0	0.24176264
168	0x3cfd0fd7	0.030891342
169	0xbee65cb2	-0.44992596
170	0x3d9a3040	0.07528734
171	0x3ed00248	0.4062674
172	0xbd654578	-0.055974454
173	0xbcef919b	-0.029244235
174	0x3e90f637	0.28312847
175	0x3d205451	0.03914291
176	0x3dbd7f3e	0.09252785
177	0x3da72a32	0.08162345
178	0x3db9d101	0.090730675
179	0xbe86caa7	-0.26326486
180	0x3e9a58c9	0.30145863
181	0x3cec97e2	0.028881017
182	0xbdd09715	-0.101850666
183	0x3e7b9dba	0.24571887
184	0xbd618609	-0.055059467
185	0xbea599bd	-0.32343856
186	0x3dd0ac98	0.1018917
187	0x3c0c82b2	0.008576082
188	0xbe3ca2a8	-0.18421423
189	0x3e2fedef	0.17180608
190	0x3ec4b3ea	0.38418514
191	0x3f77e9d2	0.96841156
192	0x3db9a8cb	0.09065398
193	0x3ef81040	0.48449898
194	0x3fe15c9f	1.7606391
195	0x3d38c7f9	0.045112584
196	0x3e67290a	0.22574249
197	0x3f900469	1.1251346
198	0x3e9a91aa	0.30189258
199	0x3e9911ef	0.29896495
200	0x3dd6b5f5	0.10483924
201	0x3eae7e60	0.3408079
202	0x3e9d4274	0.30714762
203	0x3ea9bb04	0.33150494
204	0x3ea87e18	0.32908702
205	0x3e86bb8d	0.26314965
206	0x3ed68911	0.41901448
207	0x3d9a970b	0.075483404
208	0xbdfc01af	-0.123050086
209	0x3c81effd	0.015861506
210	0x3ed08774	0.40728343
211	0x3f07e620	0.5308552
212	0x3ed97f47	0.42479917
213	0x3e1ee5ef	0.155174
214	0x3d25adb7	0.04044887
215	0x3e2d825e	0.16944262
216	0xbed816a7	-0.42204782
217	0xbddfbd0a	-0.10924728
218	0xbe4e1e14	-0.20128661
219	0xbe811344	-0.2521001
220	0xbd704236	-0.058656894
221	0x3cf74b4d	0.030187273
222	0xbe1e264e	-0.154443
223	0xbe44a0e2	-0.19201997
224	0xbe30b0cb	-0.17254941
225	0x3cd412bb	0.025887838
226	0x3e4fd647	0.20296584
227	0xbe4ef8e2	-0.20212129
228	0xbe420f2c	-0.189511
229	0xbe7406bb	-0.23830692
230	0xbef6e4fe	-0.48221582
231	0x3e346d53	0.17619829
232	0x3e345e85	0.17614181
233	0xbe1cbc02	-0.15306094
234	0xbceff1e9	-0.029290156
235	0xbe59a583	-0.21254544
236	0xbe89eb84	-0.26937497
237	0xbd170b22	-0.03687585
238	0xbd11d5dc	-0.035604343
239	0xbdf852f3	-0.12125196
240	0xbe220b31	-0.15824582
241	0xbea30439	-0.3183916
242	0xbea559a3	-0.3229495
243	0x3e98a2da	0.29811746
244	0xbdd9bbc0	-0.106315136
245	0xbdb66c0c	-0.08907327
246	0x3ea9e8f3	0.3318554
247	0x3e447329	0.19184555
248	0x3f0631a5	0.524195
249	0x3ec066d3	0.3757845
250	0xbdcdfebf	-0.100583546
251	0xbd3d208b	-0.046173614
252	0x3ef168b5	0.47150198
253	0x3ed36199	0.412854
254	0x3f0dc829	0.55383545
255	0x3d093c98	0.033505052

feature.0.bias f4 [64]
0	0xbd382018	-0.044952482
1	0xbdc21135	-0.09475938
2	0x3b7fc7d6	0.0039029024
3	0x3ea5c956	0.3238017
4	0x3df3c66d	0.11903081
5	0xbd79e5f2	-0.06101031
6	0xbd918d37	-0.07107013
7	0x3e02dd80	0.12779808
8	0xbdbd90fa	-0.09256168
9	0x3df7f01a	0.121063426
10	0x3de7e3b5	0.113227285
11	0x3b908634	0.0044105295
12	0x3e79835c	0.24366516
13	0xbe9fd1c3	-0.31214723
14	0x3e83b0ab	0.25720724
15	0x3dcaba82	0.09898855
16	0x3e223f08	0.15844357
17	0x3e064570	0.13112426
18	0x3e9845c7	0.29740736
19	0x3e096a29	0.13419403
20	0x3e7d3a16	0.2472919
21	0x3d8cb177	0.06869786
22	0x3df40791	0.11915506
23	0x3e301916	0.1719707
24	0x3e4dff86	0.20117006
25	0x3e79c79b	0.2439255
26	0xbe54d993	-0.20786123
27	0x3bf42616	0.0074508293
28	0x3d23f4d7	0.04002842
29	0x3e917dfb	0.28416428
30	0xbdf24ca8	-0.11831027
31	0xbda47a07	-0.08031087
32	0x3e642fbf	0.22283839
33	0x3cddf8a6	0.027096104
34	0x3c7bdbaf	0.015372201
35	0xbdb381d0	-0.08764994
36	0x3d9345c3	0.0719104
37	0x3df05e8b	0.11736783
38	0xbe215bc8	-0.15757668
39	0x3db32197	0.08746641
40	0x3ceb6844	0.028736241
41	0xbe7625e8	-0.24037898
42	0xbdab67c9	-0.08369405
43	0x3d75eb8d	0.06003909
44	0xbea0d9d9	-0.31416205
45	0x3d665e73	0.056242418
46	0x3eb47e4b	0.35252604
47	0xbdc57603	-0.096416496
48	0xbde75ab3	-0.112965964
49	0x3e6f2add	0.23356195
50	0xbe16bcd0	-0.14720464
51	0x3b840a64	0.004029559
52	0x3d97d0bf	0.07412862
53	0xbdc52e37	-0.096279554
54	0xbb276398	-0.002554154
55	0xbc0dd4fb	-0.0086567355
56	0xbe80959b	-0.2511414
57	0x3e0975a3	0.13423781
58	0xbdd89bbe	-0.105765805
59	0xbde01292	-0.10941042
60	0xbe33cad3	-0.1755784
61	0xb927f0cc	-0.00016016065
62	0xbd7b222f	-0.061311897
63	0xbdb6be5d	-0.08923028

feature.1.weight f4 [64]
0	0x3f925d8b	1.1434797
1	0x3fc61e8b	1.5478071
2	0x3fb6d94f	1.4285067
3	0x3f35b44b	0.7097823
4	0x3fadbcda	1.3573258
5	0x3f6d39ce	0.9266633
6	0x3eddf2ea	0.4334939
7	0x3f966a8f	1.1751269
8	0x3e7a58aa	0.24447885
9	0x3ea2dae8	0.31807637
10	0x3fbb339d	1.4625126
11	0x3f6c0041	0.9218789
12	0x3fa3ade2	1.278744
13	0x3fac2407	1.3448495
14	0x3f8f2b72	1.1185133
15	0x3e5f1c85	0.21788223
16	0x3f62fabd	0.88663846
17	0x3e15ca7b	0.14628021
18	0x3fae60af	1.3623255
19	0x3f685972	0.9076148
20	0x3f719019	0.943605
21	0x3ed6dadd	0.41963854
22	0x3fd5427f	1.6660918
23	0x3f90b074	1.1303849
24	0x3fbf316f	1.4936961
25	0x3f952fc0	1.1655197
26	0x3f962944	1.1731343
27	0x3f8c56d1	1.0963994
28	0x3f68e46c	0.90973544
29	0x3f54f1f5	0.831817
30	0x3f76693f	0.9625434
31	0x3efc4415	0.49270692
32	0x3fe9b883	1.8259434
33	0x3f8f3931	1.1189328
34	0x3f3c9926	0.73671186
35	0x3f58d44b	0.84698933
36	0x3f976d35	1.1830202
37	0x3f957377	1.1675862
38	0x3fa2e23f	1.2725295
39	0x3f115671	0.56772524
40	0x3fa5576b	1.2917303
41	0x3fb66b69	1.4251529
42	0x3f9a08bf	1.2033919
43	0x3f9f7559	1.2457687
44	0x3ff60367	1.9219788
45	0x3fa62597	1.2980222
46	0x3f956d59	1.1673995
47	0x3e718ecd	0.2358963
48	0x3f109187	0.5647206
49	0x3ecd9e34	0.40159762
50	0x3ebf5556	0.37369794
51	0x3f81c6de	1.0138814
52	0x3fc7bf6c	1.5605292
53	0x3f9fdb76	1.2488849
54	0x3f3abee1	0.7294751
55	0x3f295dfc	0.66159034
56	0x3fb7a4c5	1.4347159
57	0x3fca8f57	1.5824994
58	0x3f6d629f	0.9272861
59	0x3f2ba0ec	0.6704242
60	0x3ebedb2a	0.37276584
61	0x3f2082cb	0.62699574
62	0x3f08c8bd	0.534313
63	0x3fbc3ccb	1.4706053

feature.1.bias f4 [64]
0	0x3e8f7371	0.28017762
1	0xbe238f00	-0.15972519
2	0xbe4a3c43	-0.1974955
3	0x3ea483ea	0.32131892
4	0xbe8b9b9d	-0.2726716
5	0xbec2d882	-0.38055807
6	0xbf0f1a08	-0.55899096
7	0x3ba99cda	0.005176169
8	0xbf10b134	-0.5652039
9	0xbe0575da	-0.13033238
10	0x3ee55925	0.44794574
11	0xbe019937	-0.12656103
12	0xbea12f85	-0.31481567
13	0x3e05385a	0.13009778
14	0x3ce594f8	0.028025135
15	0xbe1577a9	-0.14596428
16	0x3d4cdd13	0.05001552
17	0xbebad73f	-0.36492345
18	0x3e933266	0.28749388
19	0xbe75006b	-0.2392594
20	0xbe46fff6	-0.19433579
21	0xbf42fb50	-0.7616472
22	0xbd1ae174	-0.037812665
23	0xbd39e987	-0.045388725
24	0x3dfaaf43	0.1224046
25	0xbea646c1	-0.32475856
26	0xbe7fc111	-0.24975993
27	0xbe1744fe	-0.14772412
28	0xbd970b0c	-0.07375154
29	0x3e13fb29	0.14451279
30	0x3eb619dd	0.35566607
31	0xbf4d3b64	-0.8016875
32	0xbe8e835b	-0.2783459
33	0xbe71783b	-0.2358102
34	0x3df93601	0.121685036
35	0xbe824d94	-0.25449812
36	0x3eaa2cbb	0.33237252
37	0x3ea5d298	0.32387233
38	0xbe6481d3	-0.22315149
39	0x3d9923d0	0.07477534
40	0xbe62c991	-0.22147204
41	0x3ed29524	0.4112941
42	0x3e4d173d	0.20028396
43	0xbe230626	-0.15920314
44	0xbcb875f0	-0.022517174
45	0x3e6d1c60	0.23155355
46	0x3e9f40ce	0.3110413
47	0xbef1ff6f	-0.47265193
48	0xbd82f4f1	-0.06394375
49	0xbec01681	-0.3751717
50	0xbe5f3a69	-0.21799625
51	0x3edee304	0.43532574
52	0xbebe5da9	-0.37180832
53	0xbe8db43d	-0.27676573
54	0xbd7ff610	-0.062490523
55	0xbe0f72e4	-0.14008671
56	0x3e15dc27	0.14634763
57	0xbe1e9a66	-0.15488586
58	0xbe38096c	-0.17972344
59	0xbecf3c6a	-0.4047578
60	0xbf375e27	-0.7162804
61	0xbed6062c	-0.41801584
62	0xbecfab95	-0.40560594
63	0x3e11549a	0.14192429

feature.1.running_mean f4 [64]
0	0x40d001aa	6.500203
1	0xc1032cb2	-8.198412
2	0x412fdcf6	10.991446
3	0x402ee8ea	2.732966
4	0x4004530c	2.0675688
5	0xc05aa1a8	-3.4161167
6	0x3fd5f749	1.671609
7	0x4154a2dc	13.289761
8	0xc0e6f590	-7.217476
9	0x41079a3b	8.475154
10	0x412add30	10.679001
11	0x40e26f76	7.076106
12	0x40d3f362	6.62346
13	0x40378b2c	2.8678694
14	0x41373b8b	11.452037
15	0x3f7ccddc	0.98751616
16	0x41491d26	12.569616
17	0xc09ec8ba	-4.9620028
18	0x415ec523	13.923129
19	0xc04b00d4	-3.1719255
20	0x40910bd2	4.532693
21	0x40e3fe97	7.124828
22	0x41174dd2	9.456499
23	0x4137e2d9	11.492883
24	0x3fdb8676	1.7150409
25	0xbf9d9682	-1.2311556
26	0x40c5e33e	6.1839895
27	0x414ffd0e	12.999281
28	0xc0d39e80	-6.613098
29	0x3f99eb21	1.2024881
30	0xc08646c4	-4.1961384
31	0x40a2cac0	5.0872498
32	0x410b4562	8.704439
33	0x40942b38	4.6302757
34	0x40af5a4c	5.4797726
35	0xc0dc7009	-6.888676
36	0x4012c46c	2.2932386
37	0xc0225686	-2.536531
38	0x412da02f	10.851607
39	0x41381f97	11.507712
40	0x415203db	13.125941
41	0x3fd64fec	1.674314
42	0xc0ad47ec	-5.4150295
43	0x40a67c63	5.202684
44	0x410c3cc3	8.764834
45	0x40e8ef9b	7.2792487
46	0x4156834b	13.407054
47	0x40897b5f	4.29631
48	0x4072d7a2	3.7944112
49	0x410a37cc	8.638622
50	0x3fa66896	1.3000667
51	0x40e50279	7.156552
52	0x4101b70b	8.107188
53	0x3fb18f69	1.387189
54	0x408481ba	4.140836
55	0x411fe417	9.993186
56	0x414ac922	12.674105
57	0x40b3d98d	5.6203065
58	0x409bb6a0	4.866043
59	0x40ce0afb	6.4388404
60	0x4092df0a	4.5897264
61	0x41158529	9.34501
62	0xc01c5da6	-2.4432158
63	0x4149c0fb	12.609614

feature.1.running_var f4 [64]
0	0x4001a197	2.0254877
1	0x409740b8	4.72665
2	0x400185ed	2.0237992
3	0x3febe288	1.8428507
4	0x40860456	4.1880293
5	0x40164ed7	2.348562
6	0x3fb35d32	1.4012816
7	0x405e1ec2	3.4706273
8	0x3fc34eb2	1.5258391
9	0x400fc2a0	2.246254
10	0x409f5e34	4.9802494
11	0x3fcb36ab	1.5876058
12	0x40714142	3.769608
13	0x3ffa9b1f	1.9578589
14	0x409f9584	4.9870014
15	0x40004c54	2.0046587
16	0x407a8ddc	3.9149084
17	0x3f9fdd1e	1.2489355
18	0x40687e11	3.6326945
19	0x3f70c791	0.94054514
20	0x4070163e	3.7513576
21	0x40067a00	2.1011963
22	0x3ff56dd9	1.9174148
23	0x403239bf	2.7847745
24	0x4046d220	3.106575
25	0x4028054d	2.6253235
26	0x403a14fb	2.9075305
27	0x40820d59	4.0641294
28	0x407e063c	3.9691305
29	0x3f8e7b60	1.1131401
30	0x4065aecf	3.5887945
31	0x3f90c387	1.130967
32	0x402bfc7b	2.6872852
33	0x40170b9b	2.3600833
34	0x3fc94854	1.5725198
35	0x40523eeb	3.2850902
36	0x3ff48521	1.9103128
37	0x401d0d5c	2.4539404
38	0x403c4995	2.941991
39	0x4046ade2	3.104363
40	0x408634f0	4.193962
41	0x3fbd2a2a	1.4778492
42	0x40090cfb	2.1414173
43	0x40620c91	3.532017
44	0x402c14b3	2.6887634
45	0x3ffd1d27	1.9774522
46	0x404fe322	3.248238
47	0x3fc04f1f	1.5024146
48	0x3fcc85b0	1.5978298
49	0x40185132	2.3799558
50	0x3fb6047c	1.4220119
51	0x4078694a	3.8814263
52	0x404a3154	3.1592607
53	0x4008892d	2.1333725
54	0x401715cc	2.3607054
55	0x40217021	2.5224688
56	0x4054ee6f	3.3270528
57	0x3fd71a6f	1.6804942
58	0x4034b424	2.823495
59	0x40120fd8	2.282217
60	0x3fcefe53	1.6171364
61	0x406051d2	3.504994
62	0x3fd1f7f8	1.6403799
63	0x40230757	2.547323

feature.4.weight f4 [50, 64, 3, 3]
0	0x3ecedc50	0.4040246
1	0x3f2895ca	0.6585356
2	0x3f094ba4	0.53631043
3	0xbf05236a	-0.5200716
4	0xbeedb9c7	-0.464308
5	0xbf0d2cd1	-0.5514651
6	0x3b81b6af	0.003958545
7	0x3d99ceb1	0.075101264
8	0x3e19ad46	0.15007505
9	0x3c9e7183	0.019341236
10	0xbd8bcda1	-0.0682633
11	0xbe0b3e09	-0.13597883
12	0x3ea1e04c	0.31616437
13	0x3e3a15f6	0.1817244
14	0x3d5dc178	0.054139584
15	0x3f2c5f5c	0.67333007
16	0x3f217905	0.63075286
17	0x3f428f47	0.75999874
18	0xbf71afe9	-0.9440904
19	0xbf6689a6	-0.90053785
20	0xbf54168b	-0.828469
21	0xbecb8ed3	-0.39757404
22	0xbeb9916f	-0.3624377
23	0xbe9cc2e2	-0.30617434
24	0x3eef72be	0.4676723
25	0x3f10333a	0.56328166
26	0x3f04b906	0.51844823
27	0x3ef777d2	0.48333603
28	0x3f02ab99	0.5104309
29	0x3ecf6cd1	0.40512708
30	0xbc9c551a	-0.019083548
31	0xbe5d477a	-0.21609297
32	0xbe1137ef	-0.14181493
33	0x3e47f0ea	0.19525495
34	0x3e96d678	0.29460502
35	0x3eb5851e	0.35453123
36	0x3e933fab	0.28759512
37	0x3ee8f327	0.4549801
38	0x3e6deba4	0.23234421
39	0xbec43b82	-0.3832665
40	0xbeb34ea2	-0.3502093
41	0xbe7a47e3	-0.24441485
42	0x3ec3e44b	0.3826011
43	0x3ee162d8	0.44020724
44	0x3ed825be	0.42216295
45	0x3d7d91bc	0.06190656
46	0x3d74fb16	0.059809767
47	0xbda6ce62	-0.08144833
48	0xbda25079	-0.07925505
49	0xbd8a6143	-0.067568325
50	0xbe4c86ef	-0.19973348
51	0x3ea2bc7a	0.3178442
52	0x3ee4b14d	0.4466652
53	0x3f037547	0.51350826
54	0x3cf5e0b1	0.030014368
55	0xbd88df9a	-0.066832736
56	0xbe19a4af	-0.15004228
57	0xbe376c8e	-0.17912504
58	0xbe78674e	-0.24258158
59	0xbe7a81b5	-0.24463542
60	0xbe16a0af	-0.14709733
61	0xbe524516	-0.20534167
62	0xbe6bcee8	-0.23028147
63	0xbf649ab2	-0.89298546
64	0xbf64f292	-0.8943263
65	0xbf58dbdd	-0.84710485
66	0xbe9207f1	-0.28521684
67	0xbe817974	-0.25287974
68	0xbe5e07a8	-0.21682608
69	0x3eb55913	0.3541952
70	0x3e39021d	0.18067212
71	0x3ed9d1dd	0.42542925
72	0x3e3e8b26	0.18607768
73	0xbbbd38bb	-0.005774585
74	0xbdcce6f5	-0.10004989
75	0xbd1feba2	-0.039043076
76	0xbe4d606c	-0.20056313
77	0xbe6c2715	-0.23061784
78	0xbe0613c0	-0.13093472
79	0xbe40a601	-0.18813325
80	0xbe4434d0	-0.19160771
81	0x3d4f83fe	0.050662987
82	0xbd84daad	-0.064870216
83	0xbd6d3ddb	-0.057920318
84	0xbe6dbf5e	-0.23217532
85	0xbd770f41	-0.06031728
86	0xbe842006	-0.25805682
87	0x3c7523e5	0.014962171
88	0xbe241ec1	-0.16027357
89	0xbe124a89	-0.14286245
90	0xbd07e90a	-0.033181228
91	0xbe348fcc	-0.17632979
92	0xbe0e5ff1	-0.13903786
93	0xbddcb177	-0.10776036
94	0x3b127d76	0.0022352613
95	0xbd8c3a03	-0.06847002
96	0xbe3884a3	-0.18019347
97	0xbe205866	-0.15658721
98	0xbde8b750	-0.11363089
99	0x3e2321af	0.15930818
100	0x3e2dc9bc	0.16971487
101	0x3e13acb4	0.1442135
102	0xbe6a61a3	-0.22888808
103	0xbe5617a2	-0.20907453
104	0xbe49281c	-0.19644207
105	0xbed95ba6	-0.42452735
106	0xbece3276	-0.40272874
107	0xbe9a2843	-0.30108842
108	0x3e4c0087	0.19922076
109	0x3d21f14e	0.039536767
110	0x3d482e6c	0.048872396
111	0xbecfe688	-0.4060557
112	0xbf1a545d	-0.6028498
113	0xbf228a8d	-0.6349266
114	0xbdd811e1	-0.10550285
115	0x3e5827ad	0.21108885
116	0x3e7a4c33	0.2444313
117	0x3e692d7d	0.22771259
118	0x3e71dca0	0.23619318
119	0x3eb299c2	0.34882933
120	0xbe69e554	-0.22841388
121	0xbeb8d10f	-0.36097
122	0xbeba248a	-0.36356002
123	0x3e34ff23	0.17675452
124	0x3e27d920	0.1639142
125	0x3e754e4b	0.23955648
126	0xbf5c8b90	-0.86150455
127	0xbf288a63	-0.6583616
128	0xbf387a69	-0.72061783
129	0xbf0061d8	-0.501493
130	0xbec498d1	-0.3839784
131	0xbebda28d	-0.3703808
132	0x3ded29a5	0.11580209
133	0x3e3d9839	0.185151
134	0x3e28faa6	0.16501865
135	0x3d472e55	0.04862817
136	0x3c4ade25	0.012382065
137	0xbd16fc0a	-0.036861457
138	0x3d6479fe	0.055780403
139	0x3dc4bf36	0.09606783
140	0x3d7c205f	0.06155431
141	0x3e6a1766	0.22860488
142	0x3da3e18d	0.08002005
143	0x3e972a5c	0.29524505
144	0xbf0f7d4e	-0.56050575
145	0xbf2b2ad1	-0.6686221
146	0xbf31f444	-0.69513345
147	0xbde8b0e4	-0.11361864
148	0xbdf514fe	-0.119668946
149	0xbd3dab55	-0.046305973
150	0x3f4422ea	0.76615775
151	0x3eebe525	0.4607326
152	0x3f103fe3	0.56347483
153	0x3e086e5a	0.13323346
154	0x3d3b8c5b	0.04578815
155	0x3d068737	0.032843795
156	0xbdf8c78c	-0.121474355
157	0xbdfc0729	-0.12306053
158	0xbdd7ac4f	-0.10530912
159	0xbdaa8170	-0.083254695
160	0xbdd2caa3	-0.10292556
161	0xbd521b62	-0.051295646
162	0xbf35af32	-0.7097045
163	0xbf2bbc95	-0.6708463
164	0xbf44d1c0	-0.76882553
165	0xbe2cf8dc	-0.16891807
166	0xbe1184c5	-0.14210804
167	0xbe21fb67	-0.15818559
168	0x3ea0ead3	0.31429157
169	0x3e00cfda	0.12579289
170	0x3eef221e	0.46705717
171	0x3f3e9e48	0.7446027
172	0x3f3570db	0.7087533
173	0x3f3293e1	0.69756895
174	0xbd9a6987	-0.07539659
175	0xbebd9288	-0.37025857
176	0xbe6c8082	-0.23095897
177	0x3e20400c	0.15649432
178	0x3d975f84	0.07391265
179	0x3e879f5a	0.26488763
180	0x3ed84544	0.42240345
181	0x3e9a9350	0.30190516
182	0x3ecf7f3d	0.40526763
183	0x3c1f38a9	0.009718099
184	0xbd322351	-0.04349071
185	0xbd5984db	-0.053105216
186	0x3ed4ff1a	0.41600877
187	0x3f06d9f3	0.52676314
188	0x3f048ba9	0.51775604
189	0xbde32447	-0.11090904
190	0xbdedfe26	-0.116207406
191	0xbe479894	-0.19491798
192	0x3c1ae9c6	0.00945515
193	0xbabf0e3d	-0.0014576387
194	0x3d34f11f	0.044175263
195	0x3e27108a	0.16314903
196	0x3dec34a7	0.1153348
197	0x3e4931d0	0.19647908
198	0xbf0087e8	-0.50207376
199	0xbf1d9c4b	-0.6156661
200	0xbf20acd8	-0.6276374
201	0xbee49eb4	-0.4465233
202	0xbec3a851	-0.38214353
203	0xbf017068	-0.50562143
204	0x3edb4bdb	0.4283131
205	0x3ead1d70	0.33811522
206	0x3ee6e1ca	0.45094138
207	0xbf0af0c7	-0.5427365
208	0xbf2d50fc	-0.677017
209	0xbed8fd96	-0.4238097
210	0xbeb1bbc0	-0.34713554
211	0xbe318648	-0.1733638
212	0xbe08ef43	-0.13372521
213	0x3e2c2cdd	0.16813989
214	0x3ccf5306	0.025308143
215	0x3db8df3c	0.090269536
216	0x3f176cd3	0.5915043
217	0x3f04dc00	0.51898193
218	0x3f03bb3f	0.5145759
219	0xbd9b86bf	-0.0759406
220	0xbe8aadc0	-0.27085686
221	0xbe9bb0d9	-0.30408362
222	0x3f9f4c2a	1.2445118
223	0x3fae3a74	1.3611588
224	0x3fb5e087	1.4209145
225	0x3ee2f2db	0.4432591
226	0x3ea61738	0.3243959
227	0x3e88362d	0.26603833
228	0x3dddb88e	0.10826217
229	0xbe8c3e25	-0.27391163
230	0xbe965652	-0.29362732
231	0x3f2ad923	0.66737574
232	0x3f1506f7	0.5821375
233	0x3f24d9d4	0.6439488
234	0xbe9dd2d0	-0.308249
235	0xbea1b3dc	-0.31582534
236	0xbea67519	-0.32511213
237	0xbe696e33	-0.22795944
238	0xbe8ebd10	-0.27878618
239	0xbe4d35f8	-0.20040119
240	0x3e8f08e2	0.27936465
241	0x3e81ebeb	0.25375304
242	0x3e347811	0.17623927
243	0xbf5701d5	-0.8398717
244	0xbf4eedca	-0.8083159
245	0xbf5eeaee	-0.87077224
246	0xbea54931	-0.32282403
247	0xbe3b6c16	-0.1830295
248	0xbe0ae005	-0.13562019
249	0x3ebf7a43	0.37397966
250	0x3e89f5f3	0.26945457
251	0x3e74fc55	0.23924382
252	0xbe6fe12b	-0.23425739
253	0xbde22e9f	-0.110440485
254	0xbea8bd11	-0.32956746
255	0x3e444631	0.19167401

feature.4.bias f4 [50]
0	0xbd842932	-0.0645317
1	0x3dd0ca8a	0.10194881
2	0x3dcc3560	0.09971118
3	0xbbf7b427	-0.0075593176
4	0x3e11edb8	0.14250839
5	0xbdd12773	-0.102126025
6	0xbcbd705f	-0.023124872
7	0xbb5cb3ee	-0.0033676582
8	0x3cceba51	0.025235327
9	0x3c38d103	0.011280301
10	0xbc53664f	-0.01290281
11	0xbd6954a6	-0.056965493
12	0x3cf29ac9	0.029614823
13	0xbcdb530e	-0.026773002
14	0xbcbc41ce	-0.022980597
15	0xbbb9c97e	-0.0056697717
16	0xbce9e706	-0.028552543
17	0x3cd96a14	0.02653984
18	0xbd23461f	-0.039861795
19	0x3cc84579	0.02444719
20	0xbbd8cf43	-0.0066165044
21	0xbc54fbcd	-0.012999487
22	0xbbaea359	-0.005329531
23	0xbcfbf325	-0.030755589
24	0x3d1788a3	0.03699554
25	0xbd3f80f8	-0.046753854
26	0xbc34eaa7	-0.011042274
27	0x3d50d3f1	0.050983373
28	0xbb92e34d	-0.004482663
29	0xbb675dda	-0.0035303743
30	0x3cad20ea	0.021133859
31	0xbc89215f	-0.016739545
32	0x3a8c3475	0.0010696786
33	0xbc7021c9	-0.0146564925
34	0xbbff712a	-0.0077954726
35	0x3d19bfae	0.037536316
36	0xbd813302	-0.06308557
37	0x3b987137	0.004652168
38	0x3ce7d9cc	0.028302096
39	0xbd9bb5fb	-0.076030694
40	0x3ca135aa	0.01967891
41	0xbc05a3eb	-0.008156757
42	0xbcbca1eb	-0.023026427
43	0xb9b2743c	-0.00034037407
44	0x3d82bb89	0.06383426
45	0x3be49562	0.0069758156
46	0x3c0c1e63	0.008552167
47	0xbceff10e	-0.029289749
48	0xbd19e10f	-0.03756815
49	0xbbe98a63	-0.0071270927

feature.5.weight f4 [50]
0	0x3fc195b0	1.5123806
1	0x3ffd0e91	1.977007
2	0x3ee9d35d	0.4566907
3	0x3f3cafae	0.73705566
4	0x3ef4d23a	0.4781664
5	0x3ef247e4	0.47320473
6	0x3fbf4f03	1.4945987
7	0x3fc476ba	1.5348732
8	0x3fa13675	1.2594744
9	0x3f2395a0	0.63900185
10	0x3f23db5e	0.640066
11	0x3f46a1ee	0.77590835
12	0x3f878b70	1.0589428
13	0x3f8514b2	1.0396941
14	0x3f9f78f6	1.2458789
15	0x3f52ba50	0.8231554
16	0x3f840327	1.0313462
17	0x3fb7948f	1.4342211
18	0x3ebfa608	0.3743136
19	0x3f8b68a5	1.089131
20	0x3f057f67	0.52147526
21	0x3f03e19b	0.5151612
22	0x3f22cc72	0.6359321
23	0x3fd53438	1.6656561
24	0x3f595e8f	0.8490991
25	0x3f4a68e3	0.79066294
26	0x3f5d1678	0.8636241
27	0x3fbc83d7	1.4727734
28	0x3f54de27	0.8315148
29	0x3fa80078	1.3125143
30	0x3f0a54b2	0.54035485
31	0x3fb60ef5	1.4223315
32	0x3f2aa074	0.6665108
33	0x3fb874d8	1.4410658
34	0x3f445c82	0.76703656
35	0x3f683c08	0.907166
36	0x3e9d75a2	0.3075381
37	0x3f2dbd20	0.67866707
38	0x3f8a82ef	1.0821208
39	0x3fae8fbf	1.3637618
40	0x3f6cff3e	0.9257697
41	0x3f755183	0.958275
42	0x3f8f0843	1.1174396
43	0x3f8412c5	1.0318228
44	0x3f1e60ae	0.6186627
45	0x3f5a88be	0.853649
46	0x3f0eab2b	0.5572993
47	0x3f5c7c1d	0.8612688
48	0x3fa1c62e	1.2638605
49	0x3fae58d3	1.3620857

feature.5.bias f4 [50]
0	0xbeabec9b	-0.33578953
1	0xbd8c9874	-0.068650156
2	0xbf370ec0	-0.7150688
3	0xbee2caad	-0.44295254
4	0xbe8abf9b	-0.27099308
5	0xbf330d93	-0.6994259
6	0xbe9c847b	-0.30569825
7	0x3e245def	0.16051458
8	0x3e1339e2	0.1437755
9	0xbed26585	-0.41093078
10	0xbe8bfa3a	-0.27339345
11	0xbe4a5782	-0.19759944
12	0xbeb1e136	-0.34742135
13	0x3cc43037	0.023948772
14	0xbc8d9522	-0.017283026
15	0xbe81543e	-0.25259584
16	0xbea6c398	-0.325711
17	0x3ddf8ed3	0.109159134
18	0xbf319b90	-0.69377995
19	0xbe440693	-0.19143133
20	0xbf0ed5e7	-0.5579514
21	0xbf0f40fd	-0.5595854
22	0xbe97366d	-0.2953371
23	0x3e73e8a0	0.23819208
24	0xbe9868d1	-0.2976747
25	0xbf24318d	-0.6413811
26	0xbe63baa2	-0.22239164
27	0x3d918d35	0.07107011
28	0xbdf92401	-0.1216507
29	0xbe48b9f0	-0.1960218
30	0xbed0ca4f	-0.4077935
31	0x3dd11937	0.102098875
32	0xbec04b40	-0.3755741
33	0x3eb3bbf4	0.35104334
34	0xbe4758be	-0.19467446
35	0xbdc9ba01	-0.098499306
36	0xbf0bd13d	-0.5461615
37	0xbede488a	-0.43414718
38	0xbedcd359	-0.43129995
39	0xbe6d5970	-0.23178649
40	0xbdb4ad86	-0.088221595
41	0xbd4237da	-0.047416545
42	0x3dfe0f20	0.124052286
43	0xbd91d4f2	-0.07120694
44	0xbeab9d3a	-0.33518392
45	0x3e7bcbaa	0.2458941
46	0xbf11d2c3	-0.5696222
47	0xbe109c71	-0.14122178
48	0xbdc2290c	-0.09480485
49	0x3e4846f4	0.19558316

feature.5.running_mean f4 [50]
0	0xc016bb08	-2.3551655
1	0x421140a5	36.31313
2	0xc1c312c0	-24.384155
3	0x419d8a07	19.692396
4	0x41119245	9.09821
5	0xc25e7396	-55.612877
6	0x4254f76f	53.241634
7	0x42294045	42.312763
8	0x41ae870b	21.815939
9	0x40e360e5	7.105578
10	0x407cfe07	3.9530046
11	0x41e80534	29.00254
12	0xc136179f	-11.380767
13	0xc143cbee	-12.2372875
14	0x40a9a727	5.3016543
15	0x4184397e	16.528072
16	0x41179ec6	9.476263
17	0x41b4269c	22.518852
18	0xc14db552	-12.856768
19	0x411783aa	9.469645
20	0xc188d72f	-17.10507
21	0x4086f83d	4.2178025
22	0xc161e5cf	-14.118606
23	0xc022eb5b	-2.545615
24	0xc15e25c5	-13.884221
25	0xc06f1f7d	-3.736297
26	0x41253422	10.325228
27	0x41176d9c	9.46426
28	0xc1b91ef5	-23.140116
29	0x4104e94d	8.306958
30	0xc176c9f4	-15.424305
31	0x41192568	9.571632
32	0xbfb87ae2	-1.4412501
33	0x410a0de6	8.628393
34	0x41375a08	11.45948
35	0x4139387f	11.576293
36	0x410a52bc	8.645199
37	0xc0bfe3d8	-5.996563
38	0xc0803ac8	-4.0071754
39	0x41700271	15.000596
40	0xc13f5d6d	-11.960309
41	0x3d152c4e	0.036419205
42	0x4185a85e	16.70721
43	0x41827c6d	16.310755
44	0xc181e4a6	-16.236645
45	0x4166bd06	14.421148
46	0x400eb8df	2.2300336
47	0x41d13636	26.15147
48	0xc15f20d8	-13.9455185
49	0xc1cc1580	-25.510498

feature.5.running_var f4 [50]
0	0x43c2688c	388.81677
1	0x43e7a947	463.32248
2	0x42c7fd5d	99.99485
3	0x43a4cf98	329.62183
4	0x44150f1c	596.2361
5	0x432c84dd	172.519
6	0x445b4bf9	877.1871
7	0x438ed5ef	285.67136
8	0x43848e6e	265.11273
9	0x438e6461	284.7842
10	0x4381c20b	259.51596
11	0x42f22daf	121.089226
12	0x43665470	230.32983
13	0x426a20a1	58.531864
14	0x422677c6	41.616966
15	0x4308ce59	136.80605
16	0x42fa5d94	125.18277
17	0x425f41ff	55.81445
18	0x422b86e1	42.881718
19	0x43012669	129.15004
20	0x42bed974	95.42471
21	0x42a1666a	80.70003
22	0x42cc68ad	102.204445
23	0x422b90e0	42.89148
24	0x42917c9c	72.74338
25	0x4286c97d	67.39353
26	0x42cee6a1	103.45045
27	0x42eac14b	117.377525
28	0x42f92e66	124.59062
29	0x42e38cd1	113.77503
30	0x427b8618	62.88095
31	0x4289057d	68.51072
32	0x42581a91	54.025944
33	0x42702668	60.037506
34	0x4239ae3d	46.420155
35	0x4269eaf2	58.47944
36	0x41be84de	23.814877
37	0x41b32490	22.392853
38	0x41f66a79	30.801989
39	0x42295db7	42.34152
40	0x424df131	51.48554
41	0x42201b55	40.02669
42	0x41c537c3	24.652227
43	0x427a932e	62.64373
44	0x4202b1f5	32.673786
45	0x424f3f62	51.811897
46	0x426ea645	59.662373
47	0x42f08b62	120.27223
48	0x4217a856	37.91439
49	0x426b30e0	58.79773
